cifar_net.pth (torch, 252005 bytes, 10 tensors)

conv1.weight f4 [6, 3, 5, 5]
000000 b4 17 ef bd 5f c5 1a bd 0d f8 e5 bd c6 ef 39 be
       -0.11674443 -0.037785884 -0.112289526 -0.18157873
000010 0a a3 20 be c9 44 e8 3d d2 50 1d 3e 76 74 f1 3d
       -0.15687194 0.11341245 0.15362862 0.11789791
000020 4f f5 af 3d 05 85 03 bd 67 23 10 bd fd 65 96 3d
       0.08591711 -0.03210928 -0.035190012 0.073436715
000030 eb f3 90 3e a8 42 54 3e 05 5d 25 3e 97 15 4e be
       0.28311095 0.20728552 0.16148765 -0.20125423
000040 7f 98 95 be 2e f4 98 be b5 63 84 bd 09 93 40 be
       -0.29217908 -0.29873794 -0.0646433 -0.1880609
000050 c0 42 06 be 15 32 83 be f4 7f 13 be 24 d3 9a bd
       -0.131114 -0.25624147 -0.14404279 -0.07559803
000060 14 c2 f6 bd a2 f5 2a bd 96 04 51 be 86 d8 3d be
       -0.12048736 -0.04173816 -0.20411906 -0.18539628
000070 b3 e6 a1 bd 46 5b 64 bd 9c 9c 4b 3d 30 1e 82 3e
       -0.079053305 -0.055751108 0.0497099 0.25413656
000080 a8 53 a5 3e 55 0b 87 3e 43 07 47 b9 5a fd a5 3d
       0.32290387 0.26375833 -0.00018980824 0.081049636
000090 3a 5f 82 3e 98 1d 96 3e 2e 63 48 3e 75 12 42 3e
       0.25463277 0.29319453 0.19569084 0.18952353
0000a0 56 e1 7b be b5 36 b0 bd 0e 9c 41 be 26 c5 16 be
       -0.24597678 -0.086041845 -0.18907186 -0.14723644
0000b0 a6 05 db bd 51 82 ef bd 29 f1 0b be 5f a2 d9 bd
       -0.10694437 -0.11694778 -0.13666214 -0.10626673
0000c0 f9 bd d2 bd e8 7e 5e bd da 30 19 bd 29 7a 44 bc
       -0.10290141 -0.054320246 -0.037400104 -0.011992016
0000d0 ab 1f 21 bd 68 1e 8d 3d 80 bb 7e bd d0 12 10 3e
       -0.03933684 0.06890565 -0.062190533 0.14069676
0000e0 ad 60 92 3e 81 e3 9e 3e 4c 0e 97 3e 73 72 43 3e
       0.28589383 0.31032947 0.29503095 0.19086628
0000f0 61 e1 0f 3e b5 9c a5 3e 36 f0 ca 3e ce 30 c5 3e
       0.14050819 0.3234612 0.3963639 0.38513798
000100 46 d1 ab 3e d8 69 59 3d db bd 8d bd ed ec a1 bd
       0.335581 0.053079456 -0.06920978 -0.07906518
000110 4d 23 ad 3d 41 63 f6 3b db 57 3a 3d 4b 9f de 3c
       0.08453999 0.007519156 0.04549394 0.027175566
000120 81 92 b0 bd d7 22 84 bd 1c df 15 3e 14 8c 4d 3e
       -0.086216934 -0.06451958 0.1463589 0.20072967
000130 08 9e e5 3d b7 52 1a bd 0a b5 cc bb c1 cd a4 3d
       0.11211783 -0.03767654 -0.0062471675 0.08047057
000140 72 bb 09 3e ab 70 57 3e 6d 4a 8a bc 93 bf 16 bd
       0.13450411 0.21039073 -0.016881192 -0.036803793
000150 98 dc 53 bd 4e e3 13 3e e8 21 85 3e 0f 95 1d 3e
       -0.051724046 0.14442179 0.2600243 0.15388893
000160 1d 15 af bd a9 31 df bd 8b d3 8f 3d cb fe a6 3d
       -0.08548949 -0.10898144 0.070227705 0.08154067
000170 4d 86 18 3e 7b cb b3 bd 70 6b 23 bc 76 46 29 3b
       0.14894982 -0.08779045 -0.009974346 0.0025829352
000180 e9 a3 89 bb 9d 69 0c 3d 97 50 60 bc 8c f0 4d 3e
       -0.004200448 0.03428041 -0.013691089 0.20111293
000190 2a 0e f0 3d c2 13 47 3c 25 39 04 be 88 1d d4 be
       0.117214516 0.012150707 -0.12912424 -0.4142878
0001a0 72 d1 62 bd 70 dc 1e 3e 9d 2c ce 3d 45 12 67 bd
       -0.055375524 0.15513778 0.10067103 -0.056413908
0001b0 76 02 b2 be 87 51 b2 be d3 99 9e 3d a1 93 2f 3e
       -0.34767503 -0.34827825 0.077441834 0.1714616
0001c0 c4 8b c3 bd 1a bb 67 be f9 a2 88 be ad dc 06 bd
       -0.095481426 -0.22629967 -0.26686838 -0.032925297
0001d0 51 39 9b 3d b5 09 9a bd d4 7c 23 be 88 ba 24 be
       0.075792916 -0.07521383 -0.15965587 -0.16086781
0001e0 81 1a 98 bc 65 92 9c 3d 3b a8 d6 bc 20 44 3a bd
       -0.018567326 0.0764511 -0.026203265 -0.045475125
0001f0 48 a6 da 3c 9c 0a 93 3d 91 43 92 3d ef 9f 22 be
       0.026690617 0.07179758 0.071417935 -0.15881322
000200 68 a3 c6 be df e2 23 be 96 11 6d 3e d4 74 70 3e
       -0.38796544 -0.16004513 0.2315124 0.23482066
000210 54 93 e2 3c de 25 d0 be b9 d2 90 be b3 b0 31 3e
       0.027658142 -0.4065389 -0.2828577 0.17352562
000220 cb d8 6a 3e c2 2f e7 3d 35 82 c1 bd a3 47 7a be
       0.22934262 0.11288406 -0.09448663 -0.2444139
000230 e8 27 9f 3d 83 2c b5 3e 5c 12 bb 3d 44 9d c0 bd
       0.077712834 0.35385522 0.09134361 -0.09404996
000240 a4 23 6f bd 66 6f 3f 3e 47 ca 3f 3e 25 6a 1a 3e
       -0.0583836 0.18694839 0.18729506 0.15079553
000250 4e 95 e2 3d 73 38 22 bd 58 5a a2 3d bd 23 92 3e
       0.11063634 -0.039604615 0.07927388 0.2854289
000260 b8 d9 a4 3e 67 26 61 3c a0 ec 06 3e 45 cb 46 3e
       0.32197356 0.013742066 0.13176203 0.19413479
000270 84 9e e4 3e 49 44 ff 3e 1e eb 16 3e b9 01 49 3d
       0.44652188 0.49856785 0.14738128 0.04907391
000280 57 64 05 bd e2 fb 76 be 19 0c a2 be a4 99 dd be
       -0.032566395 -0.24119523 -0.31649855 -0.4328128
000290 32 e7 86 be 45 72 92 be c3 bd e8 be 08 ff 16 bf
       -0.26348263 -0.28602806 -0.45457277 -0.58982897
0002a0 37 1a b6 be 05 ac f4 bd b9 86 e3 3d 79 97 93 3c
       -0.35566875 -0.119468726 0.11109681 0.018016564
0002b0 2d 3e 78 3e a3 a7 47 3e a3 25 2c 3e 94 53 9f 3d
       0.24242468 0.19497542 0.16811232 0.07779613
0002c0 6b 31 8e 3d dc 2c 7e 3e 6f 54 3f bd b4 51 0a 3d
       0.069430195 0.248218 -0.04671138 0.033769324
0002d0 36 d3 83 3d 27 db ff 3e 58 0b c9 3e d2 f8 52 3d
       0.0643677 0.49971887 0.39266467 0.051506825
0002e0 c2 11 ac 3c 88 9c 04 be 85 40 be bd 05 67 b4 be
       0.021004561 -0.12950337 -0.0928965 -0.35234848
0002f0 6e b5 d7 be 74 74 b4 be eb 04 80 be bb 27 ad be
       -0.42130607 -0.35245097 -0.25003752 -0.33819374
000300 aa 97 c0 be 12 cf 58 be 28 b2 2a be 97 5d f3 3d
       -0.3761571 -0.21172741 -0.16669524 0.11883085
000310 14 98 80 3e 44 96 31 3e 68 67 63 3e c1 5c 9c 3e
       0.25116026 0.17342478 0.22207415 0.30539516
000320 d7 7c 84 be 08 4a e5 bd e5 dc 93 bd 5f 9b ce bd
       -0.25876495 -0.11195761 -0.07219867 -0.100882284
000330 4b c9 e6 3a 61 74 d2 3d 16 07 bf 3e fc d9 db 3e
       0.0017607597 0.10276104 0.37310094 0.42939746
000340 16 5b 81 3e 11 82 c3 3c fd 05 ed bd f0 ff 30 be
       0.25264806 0.023865731 -0.11573408 -0.17285132
000350 d5 78 2f be 12 cc 82 be 2a 2f 6c be 1d 42 27 be
       -0.17135938 -0.25546318 -0.23064867 -0.16333814
000360 47 3e 7a be 74 a9 cd be 90 2f 43 be 8f 98 cb bc
       -0.2443782 -0.40168345 -0.19061112 -0.024853019
000370 5d 83 6f 3d 14 9c 90 3e 1e 0e a1 3e 07 cf c9 3e
       0.058474887 0.28244078 0.31456083 0.39415762
000380 e9 25 80 3e 7e 60 8b 3e 61 54 6f 3e 89 ba 26 3e
       0.25028923 0.27222055 0.23372032 0.16282095
000390 70 68 36 3e f5 23 9a 3d 0e bf 41 3e ea 7c 95 bd
       0.17813277 0.075263895 0.18920538 -0.07299216
0003a0 74 5d ed 3d dd 95 9f 3e 13 e6 01 be 69 30 c5 bd
       0.115900904 0.31169024 -0.12685423 -0.09628374
0003b0 73 6e 3b be a8 19 83 3e 76 27 96 3e 65 95 2a be
       -0.18303852 0.25605512 0.2932698 -0.16658552
0003c0 82 3f a5 be b6 bd 9e be cb af 6f 3e ec 16 93 3e
       -0.32275015 -0.31004113 0.23406903 0.28728426
0003d0 f6 18 b5 bd 59 bf 85 be 26 48 da be 73 c7 99 bd
       -0.088426515 -0.2612255 -0.4263317 -0.07508745
0003e0 31 df 7a bd 6d 36 b4 3d d0 58 c3 bd 74 eb b6 be
       -0.06124801 0.087994434 -0.09538424 -0.3572651
0003f0 b1 ec 1f be ca 5c bb bd 4d bc 65 bc b1 f6 61 be
       -0.15617634 -0.091485575 -0.014021945 -0.22066762

conv1.bias f4 [6]
000000 3e 83 31 be b7 73 7d be 1d c3 c3 be 6d 02 6d be
       -0.17335221 -0.24751173 -0.38234797 -0.23145457
000010 d6 02 5e bf b5 2c 64 3c
       -0.8672308 0.013926675

conv2.weight f4 [16, 6, 5, 5]
000000 d3 f1 c6 bd 12 b0 e9 bc 05 44 61 3b 98 54 1b 3d
       -0.09714093 -0.02852634 0.0034372818 0.03792247
000010 52 c0 1e 3e 7b 05 fb bd c3 7d bb bd 44 11 81 bd
       0.15503052 -0.12256905 -0.091548465 -0.06302121
000020 2d 32 c0 bc ca a5 9c 3c 84 dc 1c bd 61 46 76 bb
       -0.023461426 0.019122023 -0.038296238 -0.003757857
000030 68 fb f3 bc 4e 78 b8 ba db f8 10 3e 73 4e f5 bd
       -0.029782966 -0.001407394 0.14157431 -0.119778536
000040 3d 68 37 bd 7e 7d 73 3d c2 89 6c 3d 7a f0 00 3e
       -0.044777144 0.05944585 0.057748564 0.12591735
000050 26 b1 d6 bd fd b6 8c bd 82 71 05 3c 01 05 48 3d
       -0.10483007 -0.0687084 0.008144738 0.048832897
000060 b0 2e 01 3c 6c da c9 bd 17 85 22 be 1b ad 9b bd
       0.007884666 -0.09856114 -0.15871082 -0.076013766
000070 f4 18 11 3d 00 a8 9a bd 32 9f 56 be c0 7b 19 bd
       0.035424188 -0.07551575 -0.20959166 -0.037471533
000080 08 b9 c0 bd f1 e5 39 bd 4e 91 b0 bc 94 7f 29 be
       -0.09410292 -0.045385305 -0.021553662 -0.16552573
000090 d8 d2 03 be fc bb 94 bd e5 66 9d 3d 35 37 6c 3b
       -0.128734 -0.07262418 0.07685641 0.0036043648
0000a0 44 f3 cd bd 78 5f be bd 7d 43 d6 bd 6b 01 5e 3d
       -0.10056165 -0.09295553 -0.10462091 0.05420057
0000b0 94 73 48 3e 60 fe 16 be f4 53 22 be fe 06 5d bd
       0.1957534 -0.14745474 -0.15852338 -0.053961746
0000c0 1a 43 a2 3c d9 17 25 3e 8d 62 67 bd 8a 29 06 3c
       0.019807387 0.16122378 -0.05649047 0.008188615
0000d0 42 55 f1 bc 85 9e 0c bd f7 5b 80 3d fe f4 cb bd
       -0.0294596 -0.034330864 0.06267541 -0.09958838
0000e0 90 42 27 3c 57 75 74 bd b8 42 d9 3b da af 0a bd
       0.010208741 -0.059682216 0.006630268 -0.03385911
0000f0 44 9c c5 bc 3e ce 88 bd b5 70 94 bd b8 b1 97 bd
       -0.024122365 -0.066799626 -0.0724806 -0.07406944
000100 79 df 3b bd 90 81 05 bd d3 6e a6 bd 4e 6e fa bc
       -0.045867417 -0.032594264 -0.08126607 -0.030570175
000110 84 79 2f bd ec c2 fb 3d 2a 67 e8 3a 41 50 6b bc
       -0.042840496 0.12293038 0.0017730941 -0.014362396
000120 78 45 ce bc 52 37 a0 bc 35 95 77 3d c0 e9 1a bd
       -0.02517961 -0.019557629 0.06044503 -0.037820578
000130 d6 8c a0 3d 09 07 9d 3d 39 bb 3f 3e 20 9f b7 3d
       0.07839362 0.076673575 0.18723764 0.089658976
000140 e6 4e f2 3c ff 62 67 bc 45 94 5c 3d 53 32 6c 3e
       0.029578637 -0.014122724 0.05385234 0.23066072
000150 fa f3 6d 3d 25 a1 5f b8 19 cd e9 3c 33 d4 1a 3e
       0.058094002 -5.331742e-05 0.028540181 0.1512001
000160 41 f7 c1 3d cc 8d 2a 3e db d0 3d bd f3 61 96 3d
       0.09470988 0.16655654 -0.04634176 0.07342901
000170 2e 8e cb 3d 20 a8 d8 3d d6 c5 e2 3d 36 36 4b 3b
       0.09939228 0.10578942 0.110728905 0.0031007654
000180 d1 13 ec 3c 71 a0 1c 3d 87 e5 e9 3d 9a 11 ac 3d
       0.028818043 0.038238946 0.11420732 0.08401795
000190 bc d4 a3 bd eb 0d e8 bd 00 fe ad bd 89 4d 9f bd
       -0.0799956 -0.1133078 -0.08495712 -0.077784605
0001a0 4c 59 67 3c 4a 91 b2 bd d6 5e e7 bd 1c ff d8 bd
       0.014120411 -0.08719118 -0.112973854 -0.10595533
0001b0 20 bf 07 3b 6c ae 8a 3c e6 a5 07 3c 0b da fa bc
       0.0020713285 0.016928874 0.008279299 -0.03062155
0001c0 6a 4c 13 bc 1d 90 b9 3c e1 9b 28 bd 14 11 9d bd
       -0.0089903865 0.022651726 -0.041164283 -0.07669273
0001d0 33 09 96 bd 71 c9 c2 bd 3c 88 5a 3d 2e f6 61 bc
       -0.07325973 -0.09511078 0.05335258 -0.013791604
0001e0 f2 de a6 bd 3b d7 86 bd 6b 87 40 bd 3d 2f fd 3c
       -0.08147992 -0.06584021 -0.047004145 0.030906314
0001f0 77 f3 87 3d 28 be bf 3b 1c e3 f7 bc 0e 7f bd bd
       0.06638234 0.005851526 -0.030259661 -0.092527494
000200 4c cf 67 bd ac 8a ab 3c fd 05 e8 3b 4e d9 ba bc
       -0.056594178 0.020940147 0.007080792 -0.022808697
000210 c3 1c 65 bc 9e d7 62 bd 8a de d7 3d 81 68 24 bd
       -0.013983908 -0.05538141 0.10540493 -0.040138725
000220 63 63 43 bc 67 ee 57 3d 5f bd a8 3c 64 97 60 bd
       -0.011925551 0.052717593 0.020598112 -0.054831877
000230 36 fd 02 be 44 19 7b bb 8e 4b c0 bc 6f 25 1d 3d
       -0.12791905 -0.003831462 -0.023473527 0.038365778
000240 03 b8 08 be a9 0b ef bd 3b 2d 85 bd 67 8d 69 3d
       -0.13351445 -0.11672146 -0.06502768 0.057019617
000250 21 c6 0a 3d 76 fc ee 3c 3f 7f 0b 3d e3 ab 6a 3b
       0.033880357 0.029173117 0.0340569 0.003580802
000260 7a 41 02 3d e4 6a 5a 3d f9 95 ff 3c a1 06 bd 3c
       0.031800725 0.053324595 0.031199442 0.02307445
000270 72 1f 86 bb 14 bb 6d 3c 2d ec 3f bc fc ac f5 3c
       -0.004093104 0.014509935 -0.011714024 0.029989712
000280 7c 8c 81 bd cd 6e 9f bb 33 14 df bd f4 fb 99 bd
       -0.063256234 -0.0048655034 -0.108925246 -0.07518759
000290 7e 83 2b be 8f 74 8e be 89 39 68 bd dc 39 9d bd
       -0.16749379 -0.27823302 -0.056695495 -0.076770514
0002a0 71 cb d0 bd ee ac 9d be 29 3b 04 be f8 bc ca bd
       -0.10195053 -0.30795997 -0.12913193 -0.09899324
0002b0 b5 0d bb bb 07 1d bf bd 22 2b 75 be 75 d3 bd 3d
       -0.005708421 -0.093317084 -0.23942235 0.09268848
0002c0 e8 78 af 3d 80 cd a4 3d 6e e3 76 3d 55 28 8c 3e
       0.08567983 0.080470085 0.060275488 0.2737452
0002d0 49 05 ac 3d a0 be 9f bd f5 45 8a 3c d1 b3 94 3d
       0.083994456 -0.07800031 0.016879061 0.0726086
0002e0 ed 2a 9f 3d 41 d8 aa 3d 0b f4 3a be b2 70 9b bd
       0.07771859 0.083420284 -0.18257158 -0.07589854
0002f0 7b 24 04 bd bb ec 82 3c 3c e3 0b 3e 6d a6 13 be
       -0.032261353 0.015982023 0.13660902 -0.14418955
000300 10 59 31 3d 49 d2 35 bd ca 0d f0 bc 19 d7 21 3e
       0.043297827 -0.044389997 -0.02930345 0.1580471
000310 a9 0f a7 bd 69 63 cb bd b2 51 bf bd 41 8c d2 3c
       -0.08157284 -0.0993107 -0.09341754 0.025701644
000320 5e 55 a5 3c e2 60 b9 bd 1e 23 f9 3c 9e fb b3 bd
       0.020182308 -0.09051682 0.030412253 -0.087882265
000330 ee 78 b5 3d 90 78 1f be 39 99 04 bd 93 9c e0 bd
       0.08860956 -0.15573335 -0.032372687 -0.10967364
000340 57 7f 4e bc 80 dd 0a 3e 05 16 91 bd 68 f3 0f be
       -0.012603602 0.13561058 -0.07084278 -0.14057696
000350 6f 76 59 be ff b7 41 3d c3 83 76 3b bf e4 ff bc
       -0.21236585 0.047294613 0.0037615157 -0.031237004
000360 e7 e1 27 bc 1a 52 2d 3e cd 77 d8 3c e9 c8 73 3c
       -0.01024673 0.1692585 0.026424313 0.014879444
000370 a6 e5 a3 3e 6e 47 3b 3e 97 82 b0 3e bd 42 2a 3e
       0.32011145 0.18288967 0.34474632 0.16627021
000380 3c b0 7b bc b2 34 d3 3c 85 86 e9 bd 18 4a 38 bd
       -0.015361842 0.025781963 -0.11402611 -0.044992536
000390 1c 3c 43 bd ff a8 8a 3c 33 0e e5 bd 95 00 0b 3e
       -0.047664747 0.016926287 -0.11184349 0.13574441
0003a0 71 67 be bb a4 1d 0e be e2 38 0c 3e bd f9 13 be
       -0.005810671 -0.13878495 0.13693574 -0.14450736
0003b0 18 92 8c 3e 37 e3 6d 3d e3 4e 4d 3c 1f bd 61 3e
       0.2745521 0.058078017 0.012531015 0.220448
0003c0 e6 e1 d0 bb 5d 53 ab 3e 70 44 3d bd 3b ff cb ba
       -0.0063745854 0.3346204 -0.046207845 -0.0015563736
0003d0 c7 ef 69 3e 6b 97 a3 3d e3 53 a5 3d 66 72 db bd
       0.22845374 0.07987865 0.08072641 -0.10715179
0003e0 2b 09 d4 bd 12 f4 81 bd 9e e8 1b bc b9 54 f3 3d
       -0.10353311 -0.06345381 -0.0095159095 0.11881394
0003f0 de 8e 0d 3e a5 3e 0b 3c 20 c2 fb 3c 20 33 6a bd
       0.13824031 0.008498822 0.030732214 -0.057177663

conv2.bias f4 [16]
000000 91 0e 97 3d 58 08 14 bf c7 7f 51 3f 98 49 0b be
       0.07375825 -0.5782523 0.818356 -0.13602293
000010 f4 24 b2 be 4a 3f 3f 3d 8d 9a 1e bd eb 7c f7 3d
       -0.34793818 0.046691217 -0.03872161 0.12084373
000020 dd a8 32 3e 81 19 2f bd bf c6 86 3e 14 bb f0 bb
       0.17447229 -0.04274893 0.26323506 -0.00734652
000030 12 d8 44 3e db fc 17 bd 6f 17 06 be 52 d8 a6 be
       0.1922305 -0.037106376 -0.13094877 -0.32586914

fc1.weight f4 [120, 400]
000000 7e f7 42 bc 2b 81 2a bd 5c a7 a2 bc 29 d5 1a bb
       -0.011899827 -0.04162709 -0.019855194 -0.0023625589
000010 9d 85 68 bc 43 cd 07 3d 8d 80 2f 3c ea 0f 15 bc
       -0.014192012 0.033154737 0.010711801 -0.0090980325
000020 b4 e6 75 3b 37 c0 05 ba 65 66 5a 3d 6b 9d cb bc
       0.0037521543 -0.00051021896 0.053320307 -0.024855336
000030 ef 49 0a bd e5 be c0 bb 95 54 98 3c 0e 24 01 bd
       -0.033761915 -0.0058821314 0.01859502 -0.031528525
000040 8a b8 10 bc 21 87 e6 bc 0c 02 d6 bb ae 7b 1c bd
       -0.00883306 -0.028140606 -0.0065310057 -0.038203888
000050 e0 6d d1 3a 73 47 e0 bc 50 52 fa 3c af 5a 4b bc
       0.001597818 -0.02737782 0.030556828 -0.012411757
000060 ed 0c 13 bd 9c ab ae bc 02 1a 33 3c 73 fc af 3d
       -0.035901 -0.021322064 0.010931494 0.08593073
000070 19 ce b9 3d 6a 7c 91 bc 52 7d ce 3b e1 01 a7 3b
       0.09072513 -0.01775952 0.0063015604 0.0050966595
000080 11 d4 0b bd 2e 00 ba 3c 8b 8d 7f 3c 3a db db bc
       -0.03413779 0.022705164 0.015597711 -0.026837934
000090 82 6f d0 3c 14 3d 10 3d 71 6e 4f 3d 8a c8 b8 bc
       0.025443796 0.0352145 0.050642435 -0.022556562
0000a0 0f e8 e4 bc 93 21 42 3c 2a 83 05 3e 28 c9 66 3d
       -0.027942685 0.011848825 0.13038316 0.05634418
0000b0 92 80 97 3c 17 c8 9a bd c0 45 94 bc 65 94 33 3d
       0.018493924 -0.07557695 -0.018099666 0.043842692
0000c0 1f f8 92 bc 20 8d 1c 3c fa 51 b2 bc ef 91 1c bd
       -0.017940579 0.009555131 -0.021767605 -0.03822511
0000d0 f5 3a 87 3c 40 23 4a bc b0 a1 80 ba 45 d1 56 3b
       0.016507605 -0.012337506 -0.0009813812 0.0032778543
0000e0 5e b3 07 3d 8d 4f a0 3c b1 05 ab bb 42 29 46 3d
       0.033130042 0.019569183 -0.0052191843 0.04837919
0000f0 d8 11 9a 3c af 6b be 3c 4b b0 63 3c 20 57 ef 3a
       0.018807337 0.023244707 0.013897012 0.0018260218
000100 02 71 6f 3d 43 89 08 bc fa f6 91 3c 8f 7f b8 bc
       0.058457382 -0.008333507 0.017817963 -0.022521762
000110 3f 41 8b 3c fe 1c 50 bd d2 a3 62 bd 78 71 6e bd
       0.016998885 -0.0508089 -0.055332012 -0.05821368
000120 af fa 1d bd 37 52 80 bd 16 2c 5e bd ac 11 23 bd
       -0.03856915 -0.06265681 -0.054241262 -0.039811775
000130 3f 01 fd 3c 5e 1b 90 bd ed 7a 18 bd b6 ce c1 bd
       0.030884383 -0.0703647 -0.037226606 -0.09463255
000140 5d fa 6d 3d 4d 35 39 bb e1 88 44 bd 5f c2 04 3d
       0.058100093 -0.002826053 -0.0479821 0.03241193
000150 c1 af 5a bc 32 c8 3f bc ef aa 1a 3d 01 e6 32 bd
       -0.013347567 -0.011705445 0.03776067 -0.04367638
000160 96 43 01 bd a3 cc 30 3d f7 1c 1d 3a ae 07 d3 3c
       -0.031558596 0.043163907 0.0005993391 0.025760498
000170 6b dd 41 3d 1d ea 6a bd 84 de 0c bd b5 8f ca 3c
       0.0473303 -0.057352174 -0.034391895 0.024726728
000180 9c 32 35 3d 38 96 5d 3c 0b d0 8a 3c ca 09 0d bd
       0.044237718 0.0135245845 0.016944906 -0.034433164
000190 69 64 7f bd a1 b9 a4 bd 81 0c ec bd 2f ee 6d bd
       -0.062351618 -0.080432184 -0.115258224 -0.058088478
0001a0 35 f8 72 bd 0f c8 89 bd 26 bf 15 bc 3d ba d4 bc
       -0.05931874 -0.06727611 -0.009139812 -0.025967712
0001b0 56 e0 6f bc 38 c3 0e bd 05 55 35 bc f6 4e 81 3b
       -0.014640888 -0.034854144 -0.0110676335 0.0039461805
0001c0 59 63 4b 3d d4 51 02 3d 95 68 56 bd 95 35 9d bd
       0.049655292 0.03181632 -0.05234583 -0.076762356
0001d0 62 f3 07 3d 2d 73 41 3d 56 f9 8b bd 83 15 07 bd
       0.033191092 0.04722898 -0.068346664 -0.0329795
0001e0 86 bb df bd e4 12 2c bc 19 27 b6 bb d1 e1 c8 bb
       -0.10924439 -0.010502551 -0.00555886 -0.006130435
0001f0 5c c3 e8 b9 5a c2 aa bd ba 83 37 bd a0 b4 02 3d
       -0.00044396042 -0.08337851 -0.04480336 0.03191054
000200 ad 27 1a bd b7 08 97 bd 98 a8 ba bc 6e 53 ae bc
       -0.037635494 -0.07374709 -0.02278547 -0.021280017
000210 ef 79 99 3c e1 74 4f 3d 49 d4 3d 3d d5 31 51 bd
       0.0187349 0.050648574 0.04634503 -0.051072914
000220 d5 18 59 bc 06 d0 3d 3c f7 01 be 3d 82 f9 02 3d
       -0.013250549 0.011585241 0.092777185 0.03197623
000230 2a 2c 0d bc 4a 92 19 bd 88 20 ad ba fb c6 08 3e
       -0.008616487 -0.037493028 -0.0013208548 0.13357155
000240 12 17 35 3d 83 f3 1a be 9b c7 01 3d 21 55 8b 3c
       0.044211455 -0.15131955 0.0316845 0.017008366
000250 83 c4 ac 3c 07 ce 8b 3d 25 99 fe 3c 33 62 9c 3d
       0.021089798 0.06826406 0.031078884 0.076359175
000260 41 d6 82 ba 09 ea 16 bb 69 63 30 3d 49 ec 00 3d
       -0.0009982066 -0.002302768 0.043063555 0.03147534
000270 32 17 16 3d 37 c5 a5 3c 09 67 8f 3d ae 93 2b 3d
       0.036643215 0.02023564 0.07002074 0.041888885
000280 0f bf 66 bd 3a 6e 9a 3c e2 5b 5a 3d 32 58 a1 3d
       -0.05633455 0.018851388 0.053310283 0.0787815
000290 ee 71 c3 bc 5c 67 0d 3d a1 19 55 3d 91 a8 70 3d
       -0.023858037 0.0345224 0.052026395 0.058754507
0002a0 af dc 00 3c 8e a7 55 3c 57 3d e7 bb b1 2f 59 3b
       0.007865115 0.013040436 -0.007056873 0.0033139999
0002b0 96 06 7f 3c 2d 9b 67 3d 8a 20 aa 3c 97 0d c1 3c
       0.015565535 0.05654447 0.020767469 0.02356605
0002c0 be 3b cb 3c 16 43 89 bc ab 5f 1b bc 9c 95 55 bb
       0.02480876 -0.016755622 -0.009483258 -0.0032590395
0002d0 49 6a 50 bc 80 74 cb 3b 63 02 63 3a dd 41 b7 3c
       -0.012720653 0.0062089562 0.00086597184 0.022370273
0002e0 44 85 77 3d d1 09 ab 3c 6f c9 af b9 6a 27 e2 bc
       0.060429826 0.020878704 -0.0003352868 -0.027606685
0002f0 99 50 26 3d 45 f9 2b 3d f9 b4 1d bd a7 ae 9f bd
       0.040604208 0.04198577 -0.038502667 -0.07796984
000300 04 e3 16 3d ad d1 66 3d a8 91 09 bd a9 79 bb 3c
       0.036837593 0.056352306 -0.033586174 0.02288516
000310 38 92 37 3d 78 1f 6a 3d 6e 66 b9 bc 9a 9c 62 bd
       0.04481718 0.057158917 -0.02263185 -0.05532513
000320 a4 34 61 3d 8b ca 4a 3c 1b ed 5c 3d 70 80 90 bc
       0.054981843 0.012377392 0.05393706 -0.017639369
000330 96 df 8d 3d a8 48 29 3d 16 be 8b bb a8 45 a5 bd
       0.06927411 0.041329056 -0.0042646034 -0.080699265
000340 89 62 2e bd ce b3 99 3c 73 b8 8a 3c 64 b5 f6 3b
       -0.04257444 0.018762495 0.016933655 0.0075289477
000350 47 07 6b bd 0c c1 bf 3b ea ed ff 3b bc 33 5d 3d
       -0.057379987 0.0058518704 0.007810344 0.054004416
000360 bc db aa 3b 50 1a d7 bc 1b 18 e3 3c f6 ba 07 bd
       0.0052141827 -0.026257664 0.027721455 -0.033137284
000370 d3 6b ad 3d 29 db 78 3d 1c 49 1a bd ab d5 03 bc
       0.084678315 0.060755882 -0.03766738 -0.008046548
000380 a5 be 85 3c 51 5a 68 bd e5 b2 29 bd 4c 10 34 bd
       0.016326258 -0.056726757 -0.041430373 -0.043960854
000390 91 ea 86 bd bb 67 1f bd 49 7d ba bc 14 73 39 bb
       -0.06587709 -0.038917284 -0.022764819 -0.0028297352
0003a0 8a c2 69 3c 16 69 3f bd 2a fe c8 bd 0c fd 84 3b
       0.014267573 -0.046731077 -0.09814103 0.004058486
0003b0 86 37 c9 bc 49 04 ae 3b 32 fe 30 3b 83 d4 a0 bc
       -0.024562608 0.0053105694 0.002700698 -0.019632583
0003c0 2f a3 8a bd 02 10 c9 3c 49 c9 25 3d ca 20 f6 3c
       -0.06769406 0.024543766 0.040475164 0.030044932
0003d0 5f 57 12 bd fb 3f b5 bd 7b a3 bb bd 49 9c a0 3b
       -0.035727855 -0.08850094 -0.09162041 0.004901443
0003e0 e9 09 ab bc 35 d6 5e bd b4 6e 53 3d e0 ff e6 3c
       -0.020878749 -0.054403502 0.051619247 0.028198183
0003f0 a9 b8 0b 3d 05 3b a3 3c 32 ea 03 3d 64 a1 6a 3d
       0.034111653 0.019925604 0.032205768 0.05728282

fc1.bias f4 [120]
000000 cf 92 44 3e 25 7c 3c 3e 64 8d e9 bc 41 eb c2 3c
       0.19196628 0.18406732 -0.028509803 0.023793818
000010 36 62 0d bc 5c 02 f2 bc f6 4c 5a bb 43 25 8e 3d
       -0.008629372 -0.02954214 -0.0033310032 0.06940701
000020 aa cf 0c 3e 82 e8 ee 3d e7 de e8 ba e8 ad 91 bd
       0.13751093 0.11665441 -0.0017766625 -0.07113248
000030 81 1e 91 bc 3c 92 43 3e 3b b6 23 3d 99 22 6a bc
       -0.01771474 0.19098753 0.03996871 -0.014290475
000040 26 e1 20 3d b0 9f 7f bc bd 15 76 bd ef 71 63 bd
       0.03927722 -0.015602037 -0.060079325 -0.055528577
000050 63 63 e4 bc ba f3 e3 3c 50 11 cf 3d a1 63 52 bb
       -0.027879423 0.027826179 0.10110724 -0.003210284
000060 bd ce 18 bd f6 d6 2c 3d 44 30 61 3b cc 69 93 bd
       -0.037306536 0.04219719 0.0034361044 -0.071979135
000070 8e 4f 7f bc 1a d2 2c be 6e 37 de 3d 1b ce 1a bd
       -0.015582932 -0.16877022 0.10850416 -0.037794214
000080 0b 45 61 bd 3a bf 24 3e eb 82 db bd b9 d9 97 bc
       -0.054997485 0.16088572 -0.1071833 -0.018536435
000090 8d a4 bd 3c c0 9f 0d bd 15 29 8f 3d d1 81 ac bc
       0.023149753 -0.034576178 0.06990258 -0.021057995
0000a0 0a 5d 47 3e 76 b1 03 3d 75 98 4d bd a6 b1 da bd
       0.19469085 0.03215166 -0.050194222 -0.10678415
0000b0 e7 6c 54 bd 50 1e 55 bd cc 80 75 bd a7 0d 80 bc
       -0.05186167 -0.05203086 -0.059937283 -0.01563151
0000c0 2c b0 49 3d 5c e8 14 bd e5 31 5e 3b 78 62 10 3d
       0.049240276 -0.036354408 0.0033904251 0.035250157
0000d0 08 d6 ba 3c 98 25 dc bc 57 ad b0 bc d8 cc 8a bb
       0.022807136 -0.026873395 -0.02156703 -0.004235845
0000e0 3d b1 08 3e a6 52 f4 3d b1 f1 b1 bc 1d 45 b3 3d
       0.13348861 0.119298264 -0.021721693 0.08753417
0000f0 8c 1a 13 be 10 99 7a 3c 3a 24 50 bc 44 06 4e 3e
       -0.14365596 0.015295282 -0.01270395 0.20119578
000100 82 bc 1f 3e a6 d3 12 bc 3f 26 44 3e 03 f7 9b 3d
       0.15599254 -0.008961594 0.19155215 0.07615473
000110 e4 dd e7 3b 50 bb 24 bd 5d 69 21 3e 9a a5 77 3b
       0.007076012 -0.040217698 0.15762849 0.0037787915
000120 09 71 04 3c 66 cd 18 bd 28 0e 44 bd 53 74 2b 3e
       0.00808359 -0.03730526 -0.047865063 0.16743593
000130 35 db 92 3d 11 22 3d bd c1 39 a6 3d 75 ca e1 3c
       0.07170717 -0.046175066 0.081164844 0.02756236
000140 08 f4 68 3d 7b 86 63 3e ea 4b 9f bd c4 48 94 bd
       0.05687335 0.22219269 -0.07778151 -0.072404414
000150 0a 36 df bc f4 f0 b7 3d c6 93 87 3c c0 07 f3 bd
       -0.027247448 0.08981505 0.016549956 -0.118667126
000160 93 73 34 3d 27 c0 4c 3d 9a 64 c0 3b e2 ec 3e bd
       0.044055533 0.04998794 0.0058713676 -0.046612628
000170 46 c5 a5 3d d6 56 ab bc 22 35 ad 3d 28 be 18 3e
       0.080942675 -0.02091543 0.084574 0.14916289
000180 e8 da 3f bd 78 f5 0d 3d 84 16 a2 bd b5 df f6 bc
       -0.046839625 0.034657925 -0.07914451 -0.030135969
000190 e8 3d 01 be de 23 08 3d e9 40 46 3c a8 ce 89 bc
       -0.12621272 0.03323733 0.012100437 -0.016822174
0001a0 80 4b 7f 3c a2 cc ae 3d c2 50 a8 3d aa f7 ca 3a
       0.015581965 0.08535124 0.08218528 0.0015485187
0001b0 ff b5 46 bc 13 86 af bc 98 5a 8e bd 40 53 f2 bd
       -0.012128352 -0.021426236 -0.06950873 -0.11832285
0001c0 35 20 ca 3b a6 98 1c 3e 7e 24 56 bd a0 39 04 bd
       0.00616839 0.15292606 -0.052280895 -0.032281518
0001d0 97 db 4b bd c8 0a a2 3c b5 2b cd 3c 0f 52 6a 3e
       -0.049769964 0.019780532 0.025045255 0.22882865

fc2.weight f4 [84, 120]
000000 e9 c3 da 3c ab 91 a1 3d a7 f5 07 be e3 32 d4 bc
       0.026704745 0.07889112 -0.13277303 -0.02590317
000010 3e 2c 6b 3d f4 7d 97 3d 75 b2 18 3d 47 05 c2 3c
       0.05741524 0.073970705 0.037279565 0.023684157
000020 24 5c 04 bc a3 2b 4a bc 0f 1d 8c 3d ff 61 a0 bd
       -0.008078609 -0.012339505 0.0684148 -0.07831191
000030 43 9e d3 bd 4b 49 00 3d 8c a7 9d bd f6 39 e1 3c
       -0.103329204 0.031319898 -0.07697973 0.027493458
000040 89 79 f9 3c 63 94 3d ba 6a 9b 98 bd 19 51 09 bd
       0.03045346 -0.0007231889 -0.07451518 -0.033524606
000050 65 cc fa bc 2e 4f 98 3c 5c 4e 08 3c 17 e3 2f bd
       -0.030615041 0.018592443 0.008319464 -0.04294118
000060 6f 71 43 3c 86 e8 3a 3d af 95 57 bd 39 51 c6 3d
       0.0119289 0.045631908 -0.052632984 0.09683461
000070 13 cc 00 bd 42 2d d9 bb 6e 4c 6e 3d a9 4d 08 3c
       -0.03144462 -0.0066277096 0.058178358 0.008319297
000080 f4 ea 78 bd aa eb f6 3b 68 8d 71 bc 50 8a 4a bd
       -0.060770944 0.0075354176 -0.0147431865 -0.04944831
000090 7b 65 5c bd 83 ef 43 be 2c 34 bc 3b d4 e0 00 bd
       -0.053807717 -0.19134335 0.005743524 -0.031464413
0000a0 7c 1a f6 bb 5c 4c e5 bd cb c2 24 be a2 74 84 3d
       -0.0075104814 -0.11196205 -0.16089933 0.064675584
0000b0 7a 1c 0f bd 87 ea d7 bc 9d fc 37 3d 68 02 82 bd
       -0.034939267 -0.026356949 0.044918645 -0.06348115
0000c0 e7 08 a4 3d c2 62 b5 bd b8 54 ad bd f3 1d 2d bd
       0.080095105 -0.08856727 -0.084634244 -0.04226489
0000d0 15 96 d3 bd 4e 9d 4b 3d 90 dc 18 3d 3c 56 fc bd
       -0.1033136 0.049710564 0.03731972 -0.123211354
0000e0 ff 12 46 3c e1 82 c5 bd 77 4d d9 bd 09 95 21 3e
       0.01208949 -0.09644104 -0.10610478 0.15779509
0000f0 72 d1 08 3d 1e 5d 1d 3d df d0 ff bb 54 d7 d4 3d
       0.033402868 0.03841888 -0.007806882 0.10392633
000100 af 14 bb bd 68 88 2e bc fe fe 08 3e 53 36 cf bd
       -0.091348045 -0.010652639 0.13378522 -0.101177834
000110 14 78 38 bd 53 35 f5 bd f3 4d 84 3d 5b 06 c1 3d
       -0.04503639 -0.119730614 0.0646018 0.0942504
000120 2f de a1 bc 07 91 22 bd 06 5e b4 3d a1 87 1d 3d
       -0.019759266 -0.03968909 0.08806996 0.038459424
000130 06 67 93 3d c5 22 44 bd 0d 0e bc 3d b6 d0 ac bd
       0.071973845 -0.04788472 0.091823675 -0.08438246
000140 fd 3c 5e 3e 18 83 57 3d 40 0c af bd 5a 07 e2 3d
       0.21702953 0.052615255 -0.085472584 0.110365584
000150 cd 05 f5 bd 91 41 0d be d6 f5 c9 bd dd cd bd bc
       -0.11963997 -0.13794543 -0.098613426 -0.023169452
000160 e3 de 57 bd 4b de ad 3b e1 4c c6 3d 71 1e 9c bd
       -0.052702796 0.0053060404 0.09682632 -0.07622994
000170 b6 dc 8b bd ff 0f 75 3c 6f 29 be 3a 4d 4f 46 bd
       -0.06829207 0.014957427 0.0014508198 -0.04841547
000180 f2 de d2 bd 23 24 94 3d c0 66 35 bd e1 f5 4f bd
       -0.1029643 0.07233455 -0.044287443 -0.050771598
000190 4f 44 df bd 7a 8f 12 3d d2 bf 73 bd bc 5c 49 3c
       -0.10901701 0.03578136 -0.059509106 0.012290176
0001a0 13 34 18 3e 37 46 a0 bc 01 29 65 bc f4 a6 f6 3b
       0.14863615 -0.019564731 -0.013986827 0.0075272266
0001b0 84 17 cf 3d ca a5 8f 3b b4 13 87 3c 36 0d dc bd
       0.10111907 0.0043837773 0.016488887 -0.10744707
0001c0 56 c0 f8 3c c2 64 04 bb 25 fc a3 bc 4b 4a 0b be
       0.03036515 -0.0020201658 -0.020017693 -0.1360256
0001d0 f0 5b 9c 3c f4 68 6d bd b1 92 b8 3d c6 cd fa 3b
       0.019086808 -0.05796142 0.09012354 0.0076539246
0001e0 ea c8 0d 3d 84 a2 43 3c 5c 42 8f bc 73 06 9a bd
       0.034615435 0.011940602 -0.017487697 -0.07520761
0001f0 b4 92 dd 3c 5f 36 e2 3a ab c0 76 3d da 10 25 3c
       0.027047493 0.0017258635 0.060242336 0.0100748185
000200 6c 2c ae bc 2e 1c a7 3d 40 6e 15 bd d8 4e 2d bd
       -0.021261416 0.08159672 -0.036482096 -0.04231152
000210 0e b8 e3 bc 95 87 fd 3c 4b 2d 32 3d b5 0b 81 3d
       -0.027797725 0.03094844 0.043500226 0.06301061
000220 a5 fc 1f 3d 41 73 84 bd 84 f8 94 bd 6e 16 fe bc
       0.0390593 -0.064672954 -0.07273963 -0.031016555
000230 35 fa 8e 3d b2 0c 9d 3d 8d da 14 3d 1c 28 b4 3d
       0.06981317 0.07668437 0.03634124 0.08796713
000240 42 fa 57 bd c9 0f 43 3d 60 13 14 bd c5 d6 a8 bb
       -0.0527289 0.047622476 -0.03615129 -0.0051525556
000250 4f 1a b7 3d f8 0e ce 3c ec 68 9e 3c 37 4f 3e bd
       0.08940565 0.025153622 0.01933714 -0.046462264
000260 78 88 88 3d 0e df ed 3c 72 98 e4 3c fa b2 d3 3d
       0.06666654 0.029037025 0.027904723 0.103368714
000270 68 a7 26 3c 8d b6 85 3d 33 24 81 bd 74 68 1b bd
       0.010171749 0.065289594 -0.063057326 -0.03794141
000280 00 68 21 bd b4 f5 e1 bc 9f 25 04 bd 35 4b c2 3c
       -0.039405823 -0.02758298 -0.03226244 0.023717502
000290 11 e7 a0 bc fb 92 02 3d 42 f5 70 3b d0 3a 89 bb
       -0.019641431 0.031878453 0.0036767279 -0.004187919
0002a0 ca cb 64 bd 64 d9 25 3d c0 aa 69 bd f2 38 38 bd
       -0.05585841 0.040490523 -0.057047606 -0.044976182
0002b0 4b 0f 57 3d b1 c8 80 bd 79 22 ef bc 35 6f 45 bc
       0.05250482 -0.06288279 -0.029191243 -0.01205044
0002c0 65 6f 02 3c 74 5b 65 bd f1 7a 4b 3d 69 ae be bd
       0.007961129 -0.05599542 0.049677793 -0.0931061
0002d0 f6 d5 5c bd 2a 37 ea 3c 77 5e 01 3d f2 df 49 bd
       -0.053914987 0.028590757 0.03158423 -0.049285837
0002e0 2f 21 9f bc fc cc 9c bd 57 82 5e 3d 86 7d d2 bb
       -0.019425003 -0.07656285 0.05432352 -0.006423655
0002f0 73 9f 61 bc 3d 0f 97 bd 88 50 72 bd f6 2d ba bc
       -0.013770926 -0.07375953 -0.05915883 -0.022726994
000300 ce 5e ab bc 6a 6f 6f bd 3f f7 83 3d d3 f8 9c bc
       -0.02091923 -0.058455862 0.06443643 -0.019161617
000310 d5 3b 84 3d 3f a0 5b bd 7a b6 bf 3b f5 25 d3 3c
       0.064567246 -0.05361962 0.0058506103 0.025774935
000320 96 3e 3b bd e6 c7 98 bd c3 34 c7 bc a3 b4 99 bd
       -0.045713983 -0.074600026 -0.024317151 -0.07505157
000330 8d 78 88 3c dc 6d 19 3d fb 8f 72 bd e8 e7 17 bd
       0.016659046 0.037458286 -0.05921934 -0.037086397
000340 53 95 99 bd 3c ab 61 bd 08 08 3d 3d a5 22 21 3d
       -0.074991845 -0.055094942 0.046150237 0.03933968
000350 4c 12 9a bd 31 c5 cc bd fd ee f9 3c 93 2f dd bb
       -0.07523021 -0.09998549 0.030509466 -0.006750056
000360 dd 72 58 3d 6f 2f 78 bd b6 12 49 bd 56 e7 e6 bc
       0.052843917 -0.06059211 -0.04909011 -0.028186481
000370 5c 46 3b bd 2c 9d 55 bd fc bf 16 3d 19 78 90 3c
       -0.045721397 -0.052151844 0.036804184 0.017635392
000380 51 59 23 3d ed 04 40 3d ba 28 d3 3d 19 e2 83 3d
       0.0398801 0.046879698 0.10310502 0.06439609
000390 04 8b 7f 3d ac 46 54 bd 64 df d2 bd e9 59 5c 3d
       0.062388435 -0.05182521 -0.10296515 0.053796683
0003a0 5a a9 a2 bb 5b e5 86 3c 25 74 d6 bc 86 f9 87 3d
       -0.004964036 0.016466787 -0.026178429 0.0663939
0003b0 65 76 05 3d 1c 28 bb bd 31 12 4f bd a5 d6 0f bd
       0.032583613 -0.0913851 -0.050554458 -0.03511681
0003c0 70 91 8a bd e7 1e 2a 3d e7 ff d2 bd 02 fd c5 bb
       -0.06766021 0.041533377 -0.10302716 -0.006042124
0003d0 9b 53 2b 3d 80 58 ea 3c 47 27 3f 3d 27 d6 57 bd
       0.04182778 0.028606653 0.046668317 -0.052694466
0003e0 3a 6a 87 bb ae 16 ca bd 8c 19 cb 3a 48 4a 06 bd
       -0.0041325362 -0.09867607 0.0015495284 -0.032785684
0003f0 fa 6b ac ba b6 94 39 bc 3b 0c 57 3d a7 54 ab 3d
       -0.0013154738 -0.011326959 0.0525019 0.083657555

fc2.bias f4 [84]
000000 84 53 3b 3e 59 65 8d bd 0a 1a 43 bd 43 d5 03 be
       0.18293577 -0.06904096 -0.047632255 -0.12874322
000010 e0 a2 2c 3c 85 ce 87 3d 4c 47 c0 bc e4 ac bc 3d
       0.010536879 0.06631187 -0.023471497 0.09212664
000020 33 d2 0e 3d c6 27 45 3e b2 77 7a 3c 62 39 ab bc
       0.03486843 0.19253454 0.015287327 -0.020901386
000030 3a db 6a 3e 37 62 05 bd e5 3a 51 3e e7 13 32 3d
       0.22935191 -0.032564368 0.20432623 0.04347601
000040 29 b1 70 be 47 57 b4 bc 6c 53 65 bd 4b 0a b7 bd
       -0.23505081 -0.022014273 -0.05598776 -0.0893751
000050 79 b4 b1 bd 20 9f 80 bd 51 5a 98 3c 70 19 21 3e
       -0.086770006 -0.06280351 0.018597754 0.1573236
000060 96 6c 16 3e 6c 83 b7 3d 15 32 c1 bd 1c 27 b9 bd
       0.1468986 0.089606136 -0.094333805 -0.09040663
000070 4a 0c c8 bc 59 8a 3c bc af 97 80 3c f2 e5 c2 3e
       -0.024419922 -0.011507594 0.015697328 0.3806606
000080 fe a4 55 bd 25 15 bd 3d a2 ae f6 3d 79 29 17 3b
       -0.052159302 0.092325486 0.12045027 0.002306549
000090 2b e9 97 bd 29 71 96 3d 58 e8 dd 3c a1 3c 32 3e
       -0.0741752 0.07345802 0.02708833 0.1740594
0000a0 b2 a6 85 3d 87 e4 86 3d 2d 5c 3f 3e 3f 2d c4 3c
       0.06525935 0.06586557 0.18687506 0.023947356
0000b0 3d a9 e0 bd 5e 3d 7d bd d3 0d 39 be 3e 53 84 3e
       -0.1096978 -0.061826102 -0.1807168 0.2584476
0000c0 cb 52 ff bd 02 e1 28 3e 09 55 ce bd bf 2a 8f 3c
       -0.124669634 0.16492084 -0.10074813 0.017476438
0000d0 9d 51 b6 bc 54 dc 1c 3e ab b6 d8 bd d1 c6 8f bd
       -0.022255713 0.15318424 -0.10581716 -0.07020343
0000e0 c2 e4 2c bd 5b 0d 0a bd 71 e1 35 be 7b 01 23 bd
       -0.042210348 -0.033704143 -0.1776178 -0.039796334
0000f0 18 58 ed 3d 56 9a b1 3c d0 ec ed bc 4b 58 8d 3e
       0.11589068 0.021680038 -0.029043585 0.27606425
000100 5b 14 e9 3c 69 8a db bd 49 c4 f6 3c ab 43 bc 3d
       0.028452089 -0.10719759 0.030122893 0.09192594
000110 a0 a5 b5 bd 25 54 cc bc 7f 73 46 3e 83 dd 04 3e
       -0.08869481 -0.024942467 0.19379996 0.12975125
000120 67 1c 24 3e 18 1d 41 bd 21 90 58 3c b9 ff 3b 3e
       0.1602646 -0.047146887 0.013217957 0.18359269
000130 75 8b d5 bc b7 a5 97 3d 17 37 31 3c 9a ed b7 3e
       -0.026067475 0.074046545 0.010816357 0.35923463
000140 06 d9 de bc 1a 4e b2 3d 0f cf 04 3f dd 55 8e 3c
       -0.027203094 0.08706303 0.51878446 0.017374927

fc3.weight f4 [10, 84]
000000 23 3b 2c 3b ae d2 04 bd 9d ef b0 3d a8 c2 f9 bd
       0.0026280365 -0.032427482 0.086394526 -0.12195331
000010 de aa 1e 3e 03 1c 77 bd 23 ef fa bd fe f8 af bd
       0.15494868 -0.06032945 -0.12252643 -0.08592413
000020 c1 c0 fc bd f3 08 f4 bd 3d 8d 38 bd 58 f8 0a 3d
       -0.123414524 -0.119157694 -0.04505657 0.033928245
000030 74 b9 c7 3e 86 25 8e 3d 7b 92 07 3e f5 0b 68 3b
       0.39008677 0.06940751 0.13239472 0.0035407518
000040 32 9f 7a 3c 41 c6 4d be b0 6a ec 3d 9f b6 87 bc
       0.015296744 -0.20095159 0.115437865 -0.016566573
000050 52 23 04 38 d5 0e 66 3e e4 5c 73 3d 9b fe ab 3d
       3.1504147e-05 0.22466595 0.05941476 0.083981715
000060 c3 ab d9 3d 13 c4 30 3e b0 48 12 3d 28 dc a1 3d
       0.10628464 0.17262296 0.03571385 0.079033196
000070 c8 72 d7 bd 6d 1c 8c bd 0b 76 9f bd a8 c1 a9 3e
       -0.1051994 -0.06841359 -0.07786187 0.3315556
000080 48 22 ae bd 55 15 f1 bd f6 cc 22 3e f5 e1 38 bd
       -0.085026324 -0.11771647 0.15898499 -0.045137364
000090 61 4b d4 3d 2e d3 e8 3c 6b 83 92 bc 35 d0 46 be
       0.1036594 0.02842101 -0.01788493 -0.19415362
0000a0 b1 c0 49 3c f5 f0 2a 3e a0 4c 02 be aa 8a 99 bd
       0.012314008 0.1669348 -0.12724543 -0.07497151
0000b0 ac 81 e5 3d 7c fa ee bd 2b 12 7f 3e ac 42 bd 3d
       0.112063736 -0.1166887 0.24909274 0.09241232
0000c0 43 84 91 3c c0 a1 2e 3e d2 a4 af 3d 72 33 11 3e
       0.017763263 0.1705389 0.08576359 0.14179781
0000d0 fa 34 4f 3d be 8d 80 3d 51 02 1c be 72 51 a9 bd
       0.05058763 0.06277035 -0.15235259 -0.082674876
0000e0 ed 4c 5c bd 95 47 57 3d a4 98 fc bd 85 ca 31 3e
       -0.0537843 0.0525585 -0.123338014 0.17362411
0000f0 91 fa 17 be 85 d9 70 bd 3a 05 77 bd e0 c4 5f 3e
       -0.14841677 -0.058801193 -0.06030772 0.21852446
000100 6a 82 01 3e 11 50 da 3d b6 e2 f3 bc aa 24 4a be
       0.12647405 0.10659803 -0.02977119 -0.19740549
000110 eb e5 62 bd 27 a2 1c bd 62 57 9a bd ef 02 23 3e
       -0.055395048 -0.038240578 -0.07536198 0.15919088
000120 06 a3 aa ba 4b 07 d6 3d b5 dc b0 bd a2 da 21 be
       -0.0013018555 0.1045061 -0.086358465 -0.15806058
000130 c6 4f 39 3c 21 45 2f bd 08 fa 60 bd 6f 22 ea 3d
       0.011310523 -0.042790536 -0.05492595 0.11432349
000140 75 f9 89 bd e1 fd ce bd bf 73 e1 be bb 2b 46 3e
       -0.06737033 -0.10107017 -0.4403362 0.1935262
000150 8b 2f 62 be ca 4c 1c bc c5 70 cd 3d b6 ce 8f 3d
       -0.22088449 -0.009539792 0.10031275 0.07021849
000160 c3 3a 59 3e 98 5c f9 bc 71 08 00 be 86 eb 7a 3d
       0.21213822 -0.03043966 -0.1250322 0.06125977
000170 15 11 73 bc 1b 08 d7 bd c6 94 b4 3d 5d 0c bf 3d
       -0.014835616 -0.10499593 0.08817439 0.0932853
000180 50 9e 1c 3d c6 08 9e bd 18 2a 8c be b9 3f 1c bd
       0.038236916 -0.07716517 -0.27375865 -0.03814671
000190 99 8c 9b 3e 45 2b f5 3c 42 6d 0f be 47 9d a4 bd
       0.30380705 0.02992786 -0.14006522 -0.08037811
0001a0 0e a2 4b 3e be 1e 6f 3c d2 bb ac 3d ea 66 d3 3d
       0.19886038 0.014594732 0.084342614 0.10322364
0001b0 75 ea 56 be 42 43 4f 3e 80 83 38 3d 22 1d 8f bd
       -0.20987876 0.202405 0.045047283 -0.069879785
0001c0 f2 a9 f3 bc 16 77 47 bd a4 1e 5d 3e 1a da 10 bc
       -0.029744122 -0.048697554 0.2159372 -0.008841062
0001d0 8e a7 9b 3d 6c ed 71 be 71 ed 5c 3e c3 b8 9f 3d
       0.07600318 -0.23625726 0.21574952 0.077989124
0001e0 8e 6f 56 bd 64 a2 8a 3d 59 44 34 bd 91 f8 76 be
       -0.05235248 0.06769255 -0.044010494 -0.24118258
0001f0 de 70 b4 bd 35 81 e2 bc 6e 65 66 be fa 56 56 3e
       -0.0881059 -0.027649501 -0.2249963 0.20931616
000200 d5 4d 09 bd ca 5a 50 bd 5a a5 78 3e 24 f4 8a be
       -0.033521492 -0.050867833 0.24281827 -0.2713939
000210 e0 d2 62 3e ef 7f 6b 3e 7d 3b a5 bd fa fc 90 3c
       0.22150755 0.22998022 -0.08067987 0.017698754
000220 a3 f6 67 3c e2 5d f1 3d 26 e4 b1 3e 53 77 04 3e
       0.014157924 0.11785485 0.34744376 0.12936144
000230 b0 15 69 3e 02 b7 94 bd 82 9c 6b 3e 5f 73 7f 3c
       0.2276218 -0.072614685 0.23008922 0.015591471
000240 3f a9 4b bc e5 59 23 be 40 e5 a2 3c e5 06 26 be
       -0.012430488 -0.15952261 0.019884706 -0.16213568
000250 53 28 56 bb 95 ed c4 bd 35 2f 0a 3e c9 e6 be 3d
       -0.0032677844 -0.09615628 0.1349457 0.093213625
000260 b2 82 cf bd c5 04 2f 3d ac 96 74 be 6e 5c 1e bd
       -0.1013235 0.042729158 -0.23885602 -0.038662367
000270 94 60 cf 3d ad 22 d3 bd 82 aa 51 3c ca e8 62 be
       0.10125843 -0.10309348 0.012797 -0.22159114
000280 e9 6a bc 3d e7 de 1b be 71 7b e5 bd bb 07 4b be
       0.09200079 -0.15221749 -0.11205185 -0.19827168
000290 a9 a7 0b bd 54 28 23 bd 15 42 2f be cc 8e fe 3d
       -0.03409544 -0.03983338 -0.17115052 0.1242958
0002a0 9d d1 07 be 10 cd 52 bc f8 3c 9c bd 89 72 30 be
       -0.13263555 -0.0128662735 -0.07628816 -0.17231192
0002b0 95 e7 5d bd 21 ae 82 bc ea 59 a9 3d 27 dd 20 3e
       -0.054175932 -0.015952172 0.08269103 0.15709363
0002c0 15 78 46 bc 1f f0 98 3d 8d 22 1d 3d f5 5d 9d bd
       -0.012113591 0.074676745 0.03836303 -0.076839365
0002d0 cf 7f 8a bd 28 62 cd bd 2f 01 33 3e 4a 06 10 bd
       -0.06762659 -0.100284874 0.1748092 -0.035162248
0002e0 6a 3f 23 be a7 b0 3b be 06 0c 6a 3e 7c 3a d3 bb
       -0.1594216 -0.18329106 0.22856149 -0.006446181
0002f0 3d de 87 bd 97 73 b3 3d 6a 21 0f be 6b 11 2f be
       -0.066341855 0.087622814 -0.1397759 -0.17096488
000300 86 2f 26 3c 4d af a2 bc 63 ed e8 bc b7 25 85 bc
       0.010143166 -0.01985898 -0.028433507 -0.016253335
000310 22 74 fe bd 44 80 23 3c df 4e 0e bd 3f 0c 31 3e
       -0.12424494 0.009979311 -0.034743186 0.17289828
000320 41 db ba 3d db e8 04 3d 85 9f 34 3b 2c 79 f4 bd
       0.091238506 0.03244863 0.0027560901 -0.11937174
000330 d1 37 69 3c 95 13 f5 3c e7 85 e2 3c de 4e 82 bc
       0.014234499 0.029916564 0.02765174 -0.015906747
000340 47 c7 56 3d c9 9a 9c 3d 3f 89 11 be 5d 82 6c bc
       0.05243614 0.076467104 -0.14212511 -0.014435378
000350 41 77 74 3c b3 ce 6a bd f2 d8 9d bd d5 22 4a 3d
       0.0149210105 -0.05732603 -0.07707395 0.049349625
000360 25 7a 8d 3d 98 d9 d5 bd 7b 95 d2 3d 1f 5a 46 3e
       0.06908063 -0.10441893 0.102824174 0.19370316
000370 b1 80 e3 bd 6c 67 76 bd 7c 9d 0c 3d d8 87 84 3d
       -0.1110853 -0.060157225 0.034329876 0.06471223
000380 e4 f3 4b 3d 72 70 d6 3d 98 46 11 be 15 d3 06 bd
       0.04979314 0.10470666 -0.14187086 -0.032916147
000390 a4 77 40 3e 15 70 2c 3e e7 65 89 3d 0b 29 68 3e
       0.1879564 0.16839631 0.067088895 0.22671907
0003a0 d8 73 4a bb ac 4f 5d bd b8 c4 7e bd 44 7a c8 bd
       -0.0030891802 -0.05403106 -0.062199324 -0.09788945
0003b0 b1 54 03 3e 44 08 18 bd 30 0d 22 3e 80 82 dd bd
       0.12825276 -0.037117258 0.15825343 -0.108159065
0003c0 9f b9 55 3e 69 7c a9 bd a4 c0 31 3c f3 03 5e 3c
       0.2087159 -0.082756825 0.010849152 0.013550746
0003d0 43 21 53 bd f8 8d 9e bd 90 2a ac bc 19 14 ab 3e
       -0.051545393 -0.07741922 -0.02101639 0.3341377
0003e0 b3 fc 77 bb 67 6c 5c 3d a5 f5 4e 3e 2b 38 57 be
       -0.003783983 0.053814318 0.20210893 -0.2101752
0003f0 77 0b 25 3e 68 0a 7c 3d 9e 87 36 be 0c 2a 27 3d
       0.16117655 0.06153336 -0.17825171 0.040811583

fc3.bias f4 [10]
000000 e2 8c 48 be 95 8b 31 bf cb d8 7e 3e 05 cd b6 3e
       -0.19584993 -0.6935361 0.24887387 0.35703292
000010 93 48 0c 3f e9 d7 40 be 75 0b 6b 3d b6 a6 8a be
       0.5479824 -0.18832363 0.057383973 -0.27080315
000020 30 ed f6 3e 83 03 97 be
       0.48227835 -0.29494867
